…
Predator Batch Size: 64
Dataset:
1: CIFAR-10
2: CIFAR-100
3: ImageNet
Model: "efficientnet-b0"
__________________________________________________________________________________________________
 Layer (type)                Output Shape                 Param #   Connected to                  
==================================================================================================
 input_1 (InputLayer)        [(None, 32, 32, 3)]          0         []                            
                                                                                                  
 stem_conv (Conv2D)          (None, 16, 16, 32)           864       ['input_1[0][0]']             
                                                                                                  
 stem_bn (BatchNormalizatio  (None, 16, 16, 32)           128       ['stem_conv[0][0]']           
 n)                                                                                               
                                                                                                  
 stem_activation (Activatio  (None, 16, 16, 32)           0         ['stem_bn[0][0]']             
 n)                                                                                               
                                                                                                  
 block1a_dwconv (DepthwiseC  (None, 16, 16, 32)           288       ['stem_activation[0][0]']     
 onv2D)                                                                                           
                                                                                                  
 block1a_bn (BatchNormaliza  (None, 16, 16, 32)           128       ['block1a_dwconv[0][0]']      
 tion)                                                                                            
                                                                                                  
 block1a_activation (Activa  (None, 16, 16, 32)           0         ['block1a_bn[0][0]']          
 tion)                                                                                            
                                                                                                  
 block1a_se_squeeze (Global  (None, 32)                   0         ['block1a_activation[0][0]']  
 AveragePooling2D)                                                                                
                                                                                                  
 block1a_se_reshape (Reshap  (None, 1, 1, 32)             0         ['block1a_se_squeeze[0][0]']  
 e)                                                                                               
                                                                                                  
 block1a_se_reduce (Conv2D)  (None, 1, 1, 8)              264       ['block1a_se_reshape[0][0]']  
                                                                                                  
 block1a_se_expand (Conv2D)  (None, 1, 1, 32)             288       ['block1a_se_reduce[0][0]']   
                                                                                                  
 block1a_se_excite (Multipl  (None, 16, 16, 32)           0         ['block1a_activation[0][0]',  
 y)                                                                  'block1a_se_expand[0][0]']   
                                                                                                  
 block1a_project_conv (Conv  (None, 16, 16, 16)           512       ['block1a_se_excite[0][0]']   
 2D)                                                                                              
                                                                                                  
 block1a_project_bn (BatchN  (None, 16, 16, 16)           64        ['block1a_project_conv[0][0]']
 ormalization)                                                                                    
                                                                                                  
 block2a_expand_conv (Conv2  (None, 16, 16, 96)           1536      ['block1a_project_bn[0][0]']  
 D)                                                                                               
                                                                                                  
 block2a_expand_bn (BatchNo  (None, 16, 16, 96)           384       ['block2a_expand_conv[0][0]'] 
 rmalization)                                                                                     
                                                                                                  
 block2a_expand_activation   (None, 16, 16, 96)           0         ['block2a_expand_bn[0][0]']   
 (Activation)                                                                                     
                                                                                                  
 block2a_dwconv (DepthwiseC  (None, 8, 8, 96)             864       ['block2a_expand_activation[0]
 onv2D)                                                             [0]']                         
                                                                                                  
 block2a_bn (BatchNormaliza  (None, 8, 8, 96)             384       ['block2a_dwconv[0][0]']      
 tion)                                                                                            
                                                                                                  
 block2a_activation (Activa  (None, 8, 8, 96)             0         ['block2a_bn[0][0]']          
 tion)                                                                                            
                                                                                                  
 block2a_se_squeeze (Global  (None, 96)                   0         ['block2a_activation[0][0]']  
 AveragePooling2D)                                                                                
                                                                                                  
 block2a_se_reshape (Reshap  (None, 1, 1, 96)             0         ['block2a_se_squeeze[0][0]']  
 e)                                                                                               
                                                                                                  
 block2a_se_reduce (Conv2D)  (None, 1, 1, 4)              388       ['block2a_se_reshape[0][0]']  
                                                                                                  
 block2a_se_expand (Conv2D)  (None, 1, 1, 96)             480       ['block2a_se_reduce[0][0]']   
                                                                                                  
 block2a_se_excite (Multipl  (None, 8, 8, 96)             0         ['block2a_activation[0][0]',  
 y)                                                                  'block2a_se_expand[0][0]']   
                                                                                                  
 block2a_project_conv (Conv  (None, 8, 8, 24)             2304      ['block2a_se_excite[0][0]']   
 2D)                                                                                              
                                                                                                  
 block2a_project_bn (BatchN  (None, 8, 8, 24)             96        ['block2a_project_conv[0][0]']
 ormalization)                                                                                    
                                                                                                  
 block2b_expand_conv (Conv2  (None, 8, 8, 144)            3456      ['block2a_project_bn[0][0]']  
 D)                                                                                               
                                                                                                  
 block2b_expand_bn (BatchNo  (None, 8, 8, 144)            576       ['block2b_expand_conv[0][0]'] 
 rmalization)                                                                                     
                                                                                                  
 block2b_expand_activation   (None, 8, 8, 144)            0         ['block2b_expand_bn[0][0]']   
 (Activation)                                                                                     
                                                                                                  
 block2b_dwconv (DepthwiseC  (None, 8, 8, 144)            1296      ['block2b_expand_activation[0]
 onv2D)                                                             [0]']                         
                                                                                                  
 block2b_bn (BatchNormaliza  (None, 8, 8, 144)            576       ['block2b_dwconv[0][0]']      
 tion)                                                                                            
                                                                                                  
 block2b_activation (Activa  (None, 8, 8, 144)            0         ['block2b_bn[0][0]']          
 tion)                                                                                            
                                                                                                  
 block2b_se_squeeze (Global  (None, 144)                  0         ['block2b_activation[0][0]']  
 AveragePooling2D)                                                                                
                                                                                                  
 block2b_se_reshape (Reshap  (None, 1, 1, 144)            0         ['block2b_se_squeeze[0][0]']  
 e)                                                                                               
                                                                                                  
 block2b_se_reduce (Conv2D)  (None, 1, 1, 6)              870       ['block2b_se_reshape[0][0]']  
                                                                                                  
 block2b_se_expand (Conv2D)  (None, 1, 1, 144)            1008      ['block2b_se_reduce[0][0]']   
                                                                                                  
 block2b_se_excite (Multipl  (None, 8, 8, 144)            0         ['block2b_activation[0][0]',  
 y)                                                                  'block2b_se_expand[0][0]']   
                                                                                                  
 block2b_project_conv (Conv  (None, 8, 8, 24)             3456      ['block2b_se_excite[0][0]']   
 2D)                                                                                              
                                                                                                  
 block2b_project_bn (BatchN  (None, 8, 8, 24)             96        ['block2b_project_conv[0][0]']
 ormalization)                                                                                    
                                                                                                  
 block2b_drop (FixedDropout  (None, 8, 8, 24)             0         ['block2b_project_bn[0][0]']  
 )                                                                                                
                                                                                                  
 block2b_add (Add)           (None, 8, 8, 24)             0         ['block2b_drop[0][0]',        
                                                                     'block2a_project_bn[0][0]']  
                                                                                                  
 block3a_expand_conv (Conv2  (None, 8, 8, 144)            3456      ['block2b_add[0][0]']         
 D)                                                                                               
                                                                                                  
 block3a_expand_bn (BatchNo  (None, 8, 8, 144)            576       ['block3a_expand_conv[0][0]'] 
 rmalization)                                                                                     
                                                                                                  
 block3a_expand_activation   (None, 8, 8, 144)            0         ['block3a_expand_bn[0][0]']   
 (Activation)                                                                                     
                                                                                                  
 block3a_dwconv (DepthwiseC  (None, 4, 4, 144)            3600      ['block3a_expand_activation[0]
 onv2D)                                                             [0]']                         
                                                                                                  
 block3a_bn (BatchNormaliza  (None, 4, 4, 144)            576       ['block3a_dwconv[0][0]']      
 tion)                                                                                            
                                                                                                  
 block3a_activation (Activa  (None, 4, 4, 144)            0         ['block3a_bn[0][0]']          
 tion)                                                                                            
                                                                                                  
 block3a_se_squeeze (Global  (None, 144)                  0         ['block3a_activation[0][0]']  
 AveragePooling2D)                                                                                
                                                                                                  
 block3a_se_reshape (Reshap  (None, 1, 1, 144)            0         ['block3a_se_squeeze[0][0]']  
 e)                                                                                               
                                                                                                  
 block3a_se_reduce (Conv2D)  (None, 1, 1, 6)              870       ['block3a_se_reshape[0][0]']  
                                                                                                  
 block3a_se_expand (Conv2D)  (None, 1, 1, 144)            1008      ['block3a_se_reduce[0][0]']   
                                                                                                  
 block3a_se_excite (Multipl  (None, 4, 4, 144)            0         ['block3a_activation[0][0]',  
 y)                                                                  'block3a_se_expand[0][0]']   
                                                                                                  
 block3a_project_conv (Conv  (None, 4, 4, 40)             5760      ['block3a_se_excite[0][0]']   
 2D)                                                                                              
                                                                                                  
 block3a_project_bn (BatchN  (None, 4, 4, 40)             160       ['block3a_project_conv[0][0]']
 ormalization)                                                                                    
                                                                                                  
 block3b_expand_conv (Conv2  (None, 4, 4, 240)            9600      ['block3a_project_bn[0][0]']  
 D)                                                                                               
                                                                                                  
 block3b_expand_bn (BatchNo  (None, 4, 4, 240)            960       ['block3b_expand_conv[0][0]'] 
 rmalization)                                                                                     
                                                                                                  
 block3b_expand_activation   (None, 4, 4, 240)            0         ['block3b_expand_bn[0][0]']   
 (Activation)                                                                                     
                                                                                                  
 block3b_dwconv (DepthwiseC  (None, 4, 4, 240)            6000      ['block3b_expand_activation[0]
 onv2D)                                                             [0]']                         
                                                                                                  
 block3b_bn (BatchNormaliza  (None, 4, 4, 240)            960       ['block3b_dwconv[0][0]']      
 tion)                                                                                            
                                                                                                  
 block3b_activation (Activa  (None, 4, 4, 240)            0         ['block3b_bn[0][0]']          
 tion)                                                                                            
                                                                                                  
 block3b_se_squeeze (Global  (None, 240)                  0         ['block3b_activation[0][0]']  
 AveragePooling2D)                                                                                
                                                                                                  
 block3b_se_reshape (Reshap  (None, 1, 1, 240)            0         ['block3b_se_squeeze[0][0]']  
 e)                                                                                               
                                                                                                  
 block3b_se_reduce (Conv2D)  (None, 1, 1, 10)             2410      ['block3b_se_reshape[0][0]']  
                                                                                                  
 block3b_se_expand (Conv2D)  (None, 1, 1, 240)            2640      ['block3b_se_reduce[0][0]']   
                                                                                                  
 block3b_se_excite (Multipl  (None, 4, 4, 240)            0         ['block3b_activation[0][0]',  
 y)                                                                  'block3b_se_expand[0][0]']   
                                                                                                  
 block3b_project_conv (Conv  (None, 4, 4, 40)             9600      ['block3b_se_excite[0][0]']   
 2D)                                                                                              
                                                                                                  
 block3b_project_bn (BatchN  (None, 4, 4, 40)             160       ['block3b_project_conv[0][0]']
 ormalization)                                                                                    
                                                                                                  
 block3b_drop (FixedDropout  (None, 4, 4, 40)             0         ['block3b_project_bn[0][0]']  
 )                                                                                                
                                                                                                  
 block3b_add (Add)           (None, 4, 4, 40)             0         ['block3b_drop[0][0]',        
                                                                     'block3a_project_bn[0][0]']  
                                                                                                  
 block4a_expand_conv (Conv2  (None, 4, 4, 240)            9600      ['block3b_add[0][0]']         
 D)                                                                                               
                                                                                                  
 block4a_expand_bn (BatchNo  (None, 4, 4, 240)            960       ['block4a_expand_conv[0][0]'] 
 rmalization)                                                                                     
                                                                                                  
 block4a_expand_activation   (None, 4, 4, 240)            0         ['block4a_expand_bn[0][0]']   
 (Activation)                                                                                     
                                                                                                  
 block4a_dwconv (DepthwiseC  (None, 2, 2, 240)            2160      ['block4a_expand_activation[0]
 onv2D)                                                             [0]']                         
                                                                                                  
 block4a_bn (BatchNormaliza  (None, 2, 2, 240)            960       ['block4a_dwconv[0][0]']      
 tion)                                                                                            
                                                                                                  
 block4a_activation (Activa  (None, 2, 2, 240)            0         ['block4a_bn[0][0]']          
 tion)                                                                                            
                                                                                                  
 block4a_se_squeeze (Global  (None, 240)                  0         ['block4a_activation[0][0]']  
 AveragePooling2D)                                                                                
                                                                                                  
 block4a_se_reshape (Reshap  (None, 1, 1, 240)            0         ['block4a_se_squeeze[0][0]']  
 e)                                                                                               
                                                                                                  
 block4a_se_reduce (Conv2D)  (None, 1, 1, 10)             2410      ['block4a_se_reshape[0][0]']  
                                                                                                  
 block4a_se_expand (Conv2D)  (None, 1, 1, 240)            2640      ['block4a_se_reduce[0][0]']   
                                                                                                  
 block4a_se_excite (Multipl  (None, 2, 2, 240)            0         ['block4a_activation[0][0]',  
 y)                                                                  'block4a_se_expand[0][0]']   
                                                                                                  
 block4a_project_conv (Conv  (None, 2, 2, 80)             19200     ['block4a_se_excite[0][0]']   
 2D)                                                                                              
                                                                                                  
 block4a_project_bn (BatchN  (None, 2, 2, 80)             320       ['block4a_project_conv[0][0]']
 ormalization)                                                                                    
                                                                                                  
 block4b_expand_conv (Conv2  (None, 2, 2, 480)            38400     ['block4a_project_bn[0][0]']  
 D)                                                                                               
                                                                                                  
 block4b_expand_bn (BatchNo  (None, 2, 2, 480)            1920      ['block4b_expand_conv[0][0]'] 
 rmalization)                                                                                     
                                                                                                  
 block4b_expand_activation   (None, 2, 2, 480)            0         ['block4b_expand_bn[0][0]']   
 (Activation)                                                                                     
                                                                                                  
 block4b_dwconv (DepthwiseC  (None, 2, 2, 480)            4320      ['block4b_expand_activation[0]
 onv2D)                                                             [0]']                         
                                                                                                  
 block4b_bn (BatchNormaliza  (None, 2, 2, 480)            1920      ['block4b_dwconv[0][0]']      
 tion)                                                                                            
                                                                                                  
 block4b_activation (Activa  (None, 2, 2, 480)            0         ['block4b_bn[0][0]']          
 tion)                                                                                            
                                                                                                  
 block4b_se_squeeze (Global  (None, 480)                  0         ['block4b_activation[0][0]']  
 AveragePooling2D)                                                                                
                                                                                                  
 block4b_se_reshape (Reshap  (None, 1, 1, 480)            0         ['block4b_se_squeeze[0][0]']  
 e)                                                                                               
                                                                                                  
 block4b_se_reduce (Conv2D)  (None, 1, 1, 20)             9620      ['block4b_se_reshape[0][0]']  
                                                                                                  
 block4b_se_expand (Conv2D)  (None, 1, 1, 480)            10080     ['block4b_se_reduce[0][0]']   
                                                                                                  
 block4b_se_excite (Multipl  (None, 2, 2, 480)            0         ['block4b_activation[0][0]',  
 y)                                                                  'block4b_se_expand[0][0]']   
                                                                                                  
 block4b_project_conv (Conv  (None, 2, 2, 80)             38400     ['block4b_se_excite[0][0]']   
 2D)                                                                                              
                                                                                                  
 block4b_project_bn (BatchN  (None, 2, 2, 80)             320       ['block4b_project_conv[0][0]']
 ormalization)                                                                                    
                                                                                                  
 block4b_drop (FixedDropout  (None, 2, 2, 80)             0         ['block4b_project_bn[0][0]']  
 )                                                                                                
                                                                                                  
 block4b_add (Add)           (None, 2, 2, 80)             0         ['block4b_drop[0][0]',        
                                                                     'block4a_project_bn[0][0]']  
                                                                                                  
 block4c_expand_conv (Conv2  (None, 2, 2, 480)            38400     ['block4b_add[0][0]']         
 D)                                                                                               
                                                                                                  
 block4c_expand_bn (BatchNo  (None, 2, 2, 480)            1920      ['block4c_expand_conv[0][0]'] 
 rmalization)                                                                                     
                                                                                                  
 block4c_expand_activation   (None, 2, 2, 480)            0         ['block4c_expand_bn[0][0]']   
 (Activation)                                                                                     
                                                                                                  
 block4c_dwconv (DepthwiseC  (None, 2, 2, 480)            4320      ['block4c_expand_activation[0]
 onv2D)                                                             [0]']                         
                                                                                                  
 block4c_bn (BatchNormaliza  (None, 2, 2, 480)            1920      ['block4c_dwconv[0][0]']      
 tion)                                                                                            
                                                                                                  
 block4c_activation (Activa  (None, 2, 2, 480)            0         ['block4c_bn[0][0]']          
 tion)                                                                                            
                                                                                                  
 block4c_se_squeeze (Global  (None, 480)                  0         ['block4c_activation[0][0]']  
 AveragePooling2D)                                                                                
                                                                                                  
 block4c_se_reshape (Reshap  (None, 1, 1, 480)            0         ['block4c_se_squeeze[0][0]']  
 e)                                                                                               
                                                                                                  
 block4c_se_reduce (Conv2D)  (None, 1, 1, 20)             9620      ['block4c_se_reshape[0][0]']  
                                                                                                  
 block4c_se_expand (Conv2D)  (None, 1, 1, 480)            10080     ['block4c_se_reduce[0][0]']   
                                                                                                  
 block4c_se_excite (Multipl  (None, 2, 2, 480)            0         ['block4c_activation[0][0]',  
 y)                                                                  'block4c_se_expand[0][0]']   
                                                                                                  
 block4c_project_conv (Conv  (None, 2, 2, 80)             38400     ['block4c_se_excite[0][0]']   
 2D)                                                                                              
                                                                                                  
 block4c_project_bn (BatchN  (None, 2, 2, 80)             320       ['block4c_project_conv[0][0]']
 ormalization)                                                                                    
                                                                                                  
 block4c_drop (FixedDropout  (None, 2, 2, 80)             0         ['block4c_project_bn[0][0]']  
 )                                                                                                
                                                                                                  
 block4c_add (Add)           (None, 2, 2, 80)             0         ['block4c_drop[0][0]',        
                                                                     'block4b_add[0][0]']         
                                                                                                  
 block5a_expand_conv (Conv2  (None, 2, 2, 480)            38400     ['block4c_add[0][0]']         
 D)                                                                                               
                                                                                                  
 block5a_expand_bn (BatchNo  (None, 2, 2, 480)            1920      ['block5a_expand_conv[0][0]'] 
 rmalization)                                                                                     
                                                                                                  
 block5a_expand_activation   (None, 2, 2, 480)            0         ['block5a_expand_bn[0][0]']   
 (Activation)                                                                                     
                                                                                                  
 block5a_dwconv (DepthwiseC  (None, 2, 2, 480)            12000     ['block5a_expand_activation[0]
 onv2D)                                                             [0]']                         
                                                                                                  
 block5a_bn (BatchNormaliza  (None, 2, 2, 480)            1920      ['block5a_dwconv[0][0]']      
 tion)                                                                                            
                                                                                                  
 block5a_activation (Activa  (None, 2, 2, 480)            0         ['block5a_bn[0][0]']          
 tion)                                                                                            
                                                                                                  
 block5a_se_squeeze (Global  (None, 480)                  0         ['block5a_activation[0][0]']  
 AveragePooling2D)                                                                                
                                                                                                  
 block5a_se_reshape (Reshap  (None, 1, 1, 480)            0         ['block5a_se_squeeze[0][0]']  
 e)                                                                                               
                                                                                                  
 block5a_se_reduce (Conv2D)  (None, 1, 1, 20)             9620      ['block5a_se_reshape[0][0]']  
                                                                                                  
 block5a_se_expand (Conv2D)  (None, 1, 1, 480)            10080     ['block5a_se_reduce[0][0]']   
                                                                                                  
 block5a_se_excite (Multipl  (None, 2, 2, 480)            0         ['block5a_activation[0][0]',  
 y)                                                                  'block5a_se_expand[0][0]']   
                                                                                                  
 block5a_project_conv (Conv  (None, 2, 2, 112)            53760     ['block5a_se_excite[0][0]']   
 2D)                                                                                              
                                                                                                  
 block5a_project_bn (BatchN  (None, 2, 2, 112)            448       ['block5a_project_conv[0][0]']
 ormalization)                                                                                    
                                                                                                  
 block5b_expand_conv (Conv2  (None, 2, 2, 672)            75264     ['block5a_project_bn[0][0]']  
 D)                                                                                               
                                                                                                  
 block5b_expand_bn (BatchNo  (None, 2, 2, 672)            2688      ['block5b_expand_conv[0][0]'] 
 rmalization)                                                                                     
                                                                                                  
 block5b_expand_activation   (None, 2, 2, 672)            0         ['block5b_expand_bn[0][0]']   
 (Activation)                                                                                     
                                                                                                  
 block5b_dwconv (DepthwiseC  (None, 2, 2, 672)            16800     ['block5b_expand_activation[0]
 onv2D)                                                             [0]']                         
                                                                                                  
 block5b_bn (BatchNormaliza  (None, 2, 2, 672)            2688      ['block5b_dwconv[0][0]']      
 tion)                                                                                            
                                                                                                  
 block5b_activation (Activa  (None, 2, 2, 672)            0         ['block5b_bn[0][0]']          
 tion)                                                                                            
                                                                                                  
 block5b_se_squeeze (Global  (None, 672)                  0         ['block5b_activation[0][0]']  
 AveragePooling2D)                                                                                
                                                                                                  
 block5b_se_reshape (Reshap  (None, 1, 1, 672)            0         ['block5b_se_squeeze[0][0]']  
 e)                                                                                               
                                                                                                  
 block5b_se_reduce (Conv2D)  (None, 1, 1, 28)             18844     ['block5b_se_reshape[0][0]']  
                                                                                                  
 block5b_se_expand (Conv2D)  (None, 1, 1, 672)            19488     ['block5b_se_reduce[0][0]']   
                                                                                                  
 block5b_se_excite (Multipl  (None, 2, 2, 672)            0         ['block5b_activation[0][0]',  
 y)                                                                  'block5b_se_expand[0][0]']   
                                                                                                  
 block5b_project_conv (Conv  (None, 2, 2, 112)            75264     ['block5b_se_excite[0][0]']   
 2D)                                                                                              
                                                                                                  
 block5b_project_bn (BatchN  (None, 2, 2, 112)            448       ['block5b_project_conv[0][0]']
 ormalization)                                                                                    
                                                                                                  
 block5b_drop (FixedDropout  (None, 2, 2, 112)            0         ['block5b_project_bn[0][0]']  
 )                                                                                                
                                                                                                  
 block5b_add (Add)           (None, 2, 2, 112)            0         ['block5b_drop[0][0]',        
                                                                     'block5a_project_bn[0][0]']  
                                                                                                  
 block5c_expand_conv (Conv2  (None, 2, 2, 672)            75264     ['block5b_add[0][0]']         
 D)                                                                                               
                                                                                                  
 block5c_expand_bn (BatchNo  (None, 2, 2, 672)            2688      ['block5c_expand_conv[0][0]'] 
 rmalization)                                                                                     
                                                                                                  
 block5c_expand_activation   (None, 2, 2, 672)            0         ['block5c_expand_bn[0][0]']   
 (Activation)                                                                                     
                                                                                                  
 block5c_dwconv (DepthwiseC  (None, 2, 2, 672)            16800     ['block5c_expand_activation[0]
 onv2D)                                                             [0]']                         
                                                                                                  
 block5c_bn (BatchNormaliza  (None, 2, 2, 672)            2688      ['block5c_dwconv[0][0]']      
 tion)                                                                                            
                                                                                                  
 block5c_activation (Activa  (None, 2, 2, 672)            0         ['block5c_bn[0][0]']          
 tion)                                                                                            
                                                                                                  
 block5c_se_squeeze (Global  (None, 672)                  0         ['block5c_activation[0][0]']  
 AveragePooling2D)                                                                                
                                                                                                  
 block5c_se_reshape (Reshap  (None, 1, 1, 672)            0         ['block5c_se_squeeze[0][0]']  
 e)                                                                                               
                                                                                                  
 block5c_se_reduce (Conv2D)  (None, 1, 1, 28)             18844     ['block5c_se_reshape[0][0]']  
                                                                                                  
 block5c_se_expand (Conv2D)  (None, 1, 1, 672)            19488     ['block5c_se_reduce[0][0]']   
                                                                                                  
 block5c_se_excite (Multipl  (None, 2, 2, 672)            0         ['block5c_activation[0][0]',  
 y)                                                                  'block5c_se_expand[0][0]']   
                                                                                                  
 block5c_project_conv (Conv  (None, 2, 2, 112)            75264     ['block5c_se_excite[0][0]']   
 2D)                                                                                              
                                                                                                  
 block5c_project_bn (BatchN  (None, 2, 2, 112)            448       ['block5c_project_conv[0][0]']
 ormalization)                                                                                    
                                                                                                  
 block5c_drop (FixedDropout  (None, 2, 2, 112)            0         ['block5c_project_bn[0][0]']  
 )                                                                                                
                                                                                                  
 block5c_add (Add)           (None, 2, 2, 112)            0         ['block5c_drop[0][0]',        
                                                                     'block5b_add[0][0]']         
                                                                                                  
 block6a_expand_conv (Conv2  (None, 2, 2, 672)            75264     ['block5c_add[0][0]']         
 D)                                                                                               
                                                                                                  
 block6a_expand_bn (BatchNo  (None, 2, 2, 672)            2688      ['block6a_expand_conv[0][0]'] 
 rmalization)                                                                                     
                                                                                                  
 block6a_expand_activation   (None, 2, 2, 672)            0         ['block6a_expand_bn[0][0]']   
 (Activation)                                                                                     
                                                                                                  
 block6a_dwconv (DepthwiseC  (None, 1, 1, 672)            16800     ['block6a_expand_activation[0]
 onv2D)                                                             [0]']                         
                                                                                                  
 block6a_bn (BatchNormaliza  (None, 1, 1, 672)            2688      ['block6a_dwconv[0][0]']      
 tion)                                                                                            
                                                                                                  
 block6a_activation (Activa  (None, 1, 1, 672)            0         ['block6a_bn[0][0]']          
 tion)                                                                                            
                                                                                                  
 block6a_se_squeeze (Global  (None, 672)                  0         ['block6a_activation[0][0]']  
 AveragePooling2D)                                                                                
                                                                                                  
 block6a_se_reshape (Reshap  (None, 1, 1, 672)            0         ['block6a_se_squeeze[0][0]']  
 e)                                                                                               
                                                                                                  
 block6a_se_reduce (Conv2D)  (None, 1, 1, 28)             18844     ['block6a_se_reshape[0][0]']  
                                                                                                  
 block6a_se_expand (Conv2D)  (None, 1, 1, 672)            19488     ['block6a_se_reduce[0][0]']   
                                                                                                  
 block6a_se_excite (Multipl  (None, 1, 1, 672)            0         ['block6a_activation[0][0]',  
 y)                                                                  'block6a_se_expand[0][0]']   
                                                                                                  
 block6a_project_conv (Conv  (None, 1, 1, 192)            129024    ['block6a_se_excite[0][0]']   
 2D)                                                                                              
                                                                                                  
 block6a_project_bn (BatchN  (None, 1, 1, 192)            768       ['block6a_project_conv[0][0]']
 ormalization)                                                                                    
                                                                                                  
 block6b_expand_conv (Conv2  (None, 1, 1, 1152)           221184    ['block6a_project_bn[0][0]']  
 D)                                                                                               
                                                                                                  
 block6b_expand_bn (BatchNo  (None, 1, 1, 1152)           4608      ['block6b_expand_conv[0][0]'] 
 rmalization)                                                                                     
                                                                                                  
 block6b_expand_activation   (None, 1, 1, 1152)           0         ['block6b_expand_bn[0][0]']   
 (Activation)                                                                                     
                                                                                                  
 block6b_dwconv (DepthwiseC  (None, 1, 1, 1152)           28800     ['block6b_expand_activation[0]
 onv2D)                                                             [0]']                         
                                                                                                  
 block6b_bn (BatchNormaliza  (None, 1, 1, 1152)           4608      ['block6b_dwconv[0][0]']      
 tion)                                                                                            
                                                                                                  
 block6b_activation (Activa  (None, 1, 1, 1152)           0         ['block6b_bn[0][0]']          
 tion)                                                                                            
                                                                                                  
 block6b_se_squeeze (Global  (None, 1152)                 0         ['block6b_activation[0][0]']  
 AveragePooling2D)                                                                                
                                                                                                  
 block6b_se_reshape (Reshap  (None, 1, 1, 1152)           0         ['block6b_se_squeeze[0][0]']  
 e)                                                                                               
                                                                                                  
 block6b_se_reduce (Conv2D)  (None, 1, 1, 48)             55344     ['block6b_se_reshape[0][0]']  
                                                                                                  
 block6b_se_expand (Conv2D)  (None, 1, 1, 1152)           56448     ['block6b_se_reduce[0][0]']   
                                                                                                  
 block6b_se_excite (Multipl  (None, 1, 1, 1152)           0         ['block6b_activation[0][0]',  
 y)                                                                  'block6b_se_expand[0][0]']   
                                                                                                  
 block6b_project_conv (Conv  (None, 1, 1, 192)            221184    ['block6b_se_excite[0][0]']   
 2D)                                                                                              
                                                                                                  
 block6b_project_bn (BatchN  (None, 1, 1, 192)            768       ['block6b_project_conv[0][0]']
 ormalization)                                                                                    
                                                                                                  
 block6b_drop (FixedDropout  (None, 1, 1, 192)            0         ['block6b_project_bn[0][0]']  
 )                                                                                                
                                                                                                  
 block6b_add (Add)           (None, 1, 1, 192)            0         ['block6b_drop[0][0]',        
                                                                     'block6a_project_bn[0][0]']  
                                                                                                  
 block6c_expand_conv (Conv2  (None, 1, 1, 1152)           221184    ['block6b_add[0][0]']         
 D)                                                                                               
                                                                                                  
 block6c_expand_bn (BatchNo  (None, 1, 1, 1152)           4608      ['block6c_expand_conv[0][0]'] 
 rmalization)                                                                                     
                                                                                                  
 block6c_expand_activation   (None, 1, 1, 1152)           0         ['block6c_expand_bn[0][0]']   
 (Activation)                                                                                     
                                                                                                  
 block6c_dwconv (DepthwiseC  (None, 1, 1, 1152)           28800     ['block6c_expand_activation[0]
 onv2D)                                                             [0]']                         
                                                                                                  
 block6c_bn (BatchNormaliza  (None, 1, 1, 1152)           4608      ['block6c_dwconv[0][0]']      
 tion)                                                                                            
                                                                                                  
 block6c_activation (Activa  (None, 1, 1, 1152)           0         ['block6c_bn[0][0]']          
 tion)                                                                                            
                                                                                                  
 block6c_se_squeeze (Global  (None, 1152)                 0         ['block6c_activation[0][0]']  
 AveragePooling2D)                                                                                
                                                                                                  
 block6c_se_reshape (Reshap  (None, 1, 1, 1152)           0         ['block6c_se_squeeze[0][0]']  
 e)                                                                                               
                                                                                                  
 block6c_se_reduce (Conv2D)  (None, 1, 1, 48)             55344     ['block6c_se_reshape[0][0]']  
                                                                                                  
 block6c_se_expand (Conv2D)  (None, 1, 1, 1152)           56448     ['block6c_se_reduce[0][0]']   
                                                                                                  
 block6c_se_excite (Multipl  (None, 1, 1, 1152)           0         ['block6c_activation[0][0]',  
 y)                                                                  'block6c_se_expand[0][0]']   
                                                                                                  
 block6c_project_conv (Conv  (None, 1, 1, 192)            221184    ['block6c_se_excite[0][0]']   
 2D)                                                                                              
                                                                                                  
 block6c_project_bn (BatchN  (None, 1, 1, 192)            768       ['block6c_project_conv[0][0]']
 ormalization)                                                                                    
                                                                                                  
 block6c_drop (FixedDropout  (None, 1, 1, 192)            0         ['block6c_project_bn[0][0]']  
 )                                                                                                
                                                                                                  
 block6c_add (Add)           (None, 1, 1, 192)            0         ['block6c_drop[0][0]',        
                                                                     'block6b_add[0][0]']         
                                                                                                  
 block6d_expand_conv (Conv2  (None, 1, 1, 1152)           221184    ['block6c_add[0][0]']         
 D)                                                                                               
                                                                                                  
 block6d_expand_bn (BatchNo  (None, 1, 1, 1152)           4608      ['block6d_expand_conv[0][0]'] 
 rmalization)                                                                                     
                                                                                                  
 block6d_expand_activation   (None, 1, 1, 1152)           0         ['block6d_expand_bn[0][0]']   
 (Activation)                                                                                     
                                                                                                  
 block6d_dwconv (DepthwiseC  (None, 1, 1, 1152)           28800     ['block6d_expand_activation[0]
 onv2D)                                                             [0]']                         
                                                                                                  
 block6d_bn (BatchNormaliza  (None, 1, 1, 1152)           4608      ['block6d_dwconv[0][0]']      
 tion)                                                                                            
                                                                                                  
 block6d_activation (Activa  (None, 1, 1, 1152)           0         ['block6d_bn[0][0]']          
 tion)                                                                                            
                                                                                                  
 block6d_se_squeeze (Global  (None, 1152)                 0         ['block6d_activation[0][0]']  
 AveragePooling2D)                                                                                
                                                                                                  
 block6d_se_reshape (Reshap  (None, 1, 1, 1152)           0         ['block6d_se_squeeze[0][0]']  
 e)                                                                                               
                                                                                                  
 block6d_se_reduce (Conv2D)  (None, 1, 1, 48)             55344     ['block6d_se_reshape[0][0]']  
                                                                                                  
 block6d_se_expand (Conv2D)  (None, 1, 1, 1152)           56448     ['block6d_se_reduce[0][0]']   
                                                                                                  
 block6d_se_excite (Multipl  (None, 1, 1, 1152)           0         ['block6d_activation[0][0]',  
 y)                                                                  'block6d_se_expand[0][0]']   
                                                                                                  
 block6d_project_conv (Conv  (None, 1, 1, 192)            221184    ['block6d_se_excite[0][0]']   
 2D)                                                                                              
                                                                                                  
 block6d_project_bn (BatchN  (None, 1, 1, 192)            768       ['block6d_project_conv[0][0]']
 ormalization)                                                                                    
                                                                                                  
 block6d_drop (FixedDropout  (None, 1, 1, 192)            0         ['block6d_project_bn[0][0]']  
 )                                                                                                
                                                                                                  
 block6d_add (Add)           (None, 1, 1, 192)            0         ['block6d_drop[0][0]',        
                                                                     'block6c_add[0][0]']         
                                                                                                  
 block7a_expand_conv (Conv2  (None, 1, 1, 1152)           221184    ['block6d_add[0][0]']         
 D)                                                                                               
                                                                                                  
 block7a_expand_bn (BatchNo  (None, 1, 1, 1152)           4608      ['block7a_expand_conv[0][0]'] 
 rmalization)                                                                                     
                                                                                                  
 block7a_expand_activation   (None, 1, 1, 1152)           0         ['block7a_expand_bn[0][0]']   
 (Activation)                                                                                     
                                                                                                  
 block7a_dwconv (DepthwiseC  (None, 1, 1, 1152)           10368     ['block7a_expand_activation[0]
 onv2D)                                                             [0]']                         
                                                                                                  
 block7a_bn (BatchNormaliza  (None, 1, 1, 1152)           4608      ['block7a_dwconv[0][0]']      
 tion)                                                                                            
                                                                                                  
 block7a_activation (Activa  (None, 1, 1, 1152)           0         ['block7a_bn[0][0]']          
 tion)                                                                                            
                                                                                                  
 block7a_se_squeeze (Global  (None, 1152)                 0         ['block7a_activation[0][0]']  
 AveragePooling2D)                                                                                
                                                                                                  
 block7a_se_reshape (Reshap  (None, 1, 1, 1152)           0         ['block7a_se_squeeze[0][0]']  
 e)                                                                                               
                                                                                                  
 block7a_se_reduce (Conv2D)  (None, 1, 1, 48)             55344     ['block7a_se_reshape[0][0]']  
                                                                                                  
 block7a_se_expand (Conv2D)  (None, 1, 1, 1152)           56448     ['block7a_se_reduce[0][0]']   
                                                                                                  
 block7a_se_excite (Multipl  (None, 1, 1, 1152)           0         ['block7a_activation[0][0]',  
 y)                                                                  'block7a_se_expand[0][0]']   
                                                                                                  
 block7a_project_conv (Conv  (None, 1, 1, 320)            368640    ['block7a_se_excite[0][0]']   
 2D)                                                                                              
                                                                                                  
 block7a_project_bn (BatchN  (None, 1, 1, 320)            1280      ['block7a_project_conv[0][0]']
 ormalization)                                                                                    
                                                                                                  
 top_conv (Conv2D)           (None, 1, 1, 1280)           409600    ['block7a_project_bn[0][0]']  
                                                                                                  
 top_bn (BatchNormalization  (None, 1, 1, 1280)           5120      ['top_conv[0][0]']            
 )                                                                                                
                                                                                                  
 top_activation (Activation  (None, 1, 1, 1280)           0         ['top_bn[0][0]']              
 )                                                                                                
                                                                                                  
 avg_pool (GlobalAveragePoo  (None, 1280)                 0         ['top_activation[0][0]']      
 ling2D)                                                                                          
                                                                                                  
 top_dropout (Dropout)       (None, 1280)                 0         ['avg_pool[0][0]']            
                                                                                                  
 probs (Dense)               (None, 100)                  128100    ['top_dropout[0][0]']         
                                                                                                  
==================================================================================================
Total params: 4177664 (15.94 MB)
Trainable params: 4135648 (15.78 MB)
Non-trainable params: 42016 (164.12 KB)
__________________________________________________________________________________________________
…
